…
I0916 22:08:30.188203  5298 net.cpp:294] The NetState phase (0) differed from the phase (1) specified by a rule in layer cifar
I0916 22:08:30.188366  5298 net.cpp:51] Initializing net from parameters: 
name: "CIFAR10_quick"
state {
  phase: TRAIN
  level: 0
  stage: ""
}
layer {
  name: "cifar"
  type: "Data"
  top: "data"
  top: "label"
  include {
    phase: TRAIN
  }
  transform_param {
    mean_file: "/home/wen/DeepNDF/cifar10/cifar10_mean.binaryproto"
  }
  data_param {
    source: "/home/wen/DeepNDF/cifar10/cifar10_train_lmdb"
    batch_size: 100
    backend: LMDB
  }
}
layer {
  name: "conv1"
  type: "Convolution"
  bottom: "data"
  top: "conv1"
  param {
    lr_mult: 1
  }
  param {
    lr_mult: 2
  }
  convolution_param {
    num_output: 32
    pad: 2
    kernel_size: 5
    stride: 1
    weight_filler {
      type: "gaussian"
      std: 0.0001
    }
    bias_filler {
      type: "constant"
    }
  }
}
layer {
  name: "pool1"
  type: "Pooling"
  bottom: "conv1"
  top: "pool1"
  pooling_param {
    pool: MAX
    kernel_size: 3
    stride: 2
  }
}
layer {
  name: "relu1"
  type: "ReLU"
  bottom: "pool1"
  top: "pool1"
}
layer {
  name: "conv2"
  type: "Convolution"
  bottom: "pool1"
  top: "conv2"
  param {
    lr_mult: 1
  }
  param {
    lr_mult: 2
  }
  convolution_param {
    num_output: 32
    pad: 2
    kernel_size: 5
    stride: 1
    weight_filler {
      type: "gaussian"
      std: 0.01
    }
    bias_filler {
      type: "constant"
    }
  }
}
layer {
  name: "relu2"
  type: "ReLU"
  bottom: "conv2"
  top: "conv2"
}
layer {
  name: "pool2"
  type: "Pooling"
  bottom: "conv2"
  top: "pool2"
  pooling_param {
    pool: AVE
    kernel_size: 3
    stride: 2
  }
}
layer {
  name: "conv3"
  type: "Convolution"
  bottom: "pool2"
  top: "conv3"
  param {
    lr_mult: 1
  }
  param {
    lr_mult: 2
  }
  convolution_param {
    num_output: 64
    pad: 2
    kernel_size: 5
    stride: 1
    weight_filler {
      type: "gaussian"
      std: 0.01
    }
    bias_filler {
      type: "constant"
    }
  }
}
layer {
  name: "relu3"
  type: "ReLU"
  bottom: "conv3"
  top: "conv3"
}
layer {
  name: "pool3"
  type: "Pooling"
  bottom: "conv3"
  top: "pool3"
  pooling_param {
    pool: AVE
    kernel_size: 3
    stride: 2
  }
}
layer {
  name: "ip"
  type: "InnerProduct"
  bottom: "pool3"
  top: "ip"
  param {
    lr_mult: 0
  }
  inner_product_param {
    num_output: 150
    bias_term: false
    weight_filler {
      type: "xavier"
    }
  }
}
layer {
  name: "df"
  type: "DecisionForest"
  bottom: "ip"
  bottom: "label"
  top: "loss"
  top: "df"
  param {
    lr_mult: 1e-20
  }
  propagate_down: false
  propagate_down: false
  decision_forest_param {
    num_output: 10
    tree_num: 10
    depth: 5
    weight_filler {
      type: "constant"
      value: 0.1
    }
    mini_batch_num: 600
    change_weight: true
  }
}
layer {
  name: "accuracy"
  type: "Accuracy"
  bottom: "df"
  bottom: "label"
  top: "accuracy"
}
I0916 22:08:30.188519  5298 layer_factory.hpp:77] Creating layer cifar
I0916 22:08:30.188694  5298 db_lmdb.cpp:35] Opened lmdb /home/wen/DeepNDF/cifar10/cifar10_train_lmdb
I0916 22:08:30.188771  5298 net.cpp:84] Creating Layer cifar
I0916 22:08:30.188798  5298 net.cpp:380] cifar -> data
I0916 22:08:30.188834  5298 net.cpp:380] cifar -> label
I0916 22:08:30.188882  5298 data_transformer.cpp:25] Loading mean file from: /home/wen/DeepNDF/cifar10/cifar10_mean.binaryproto
I0916 22:08:30.189743  5298 data_layer.cpp:45] output data size: 100,3,32,32
I0916 22:08:30.192718  5298 net.cpp:122] Setting up cifar
I0916 22:08:30.192796  5298 net.cpp:129] Top shape: 100 3 32 32 (307200)
I0916 22:08:30.192800  5298 net.cpp:129] Top shape: 100 (100)
I0916 22:08:30.192804  5298 net.cpp:137] Memory required for data: 1229200
I0916 22:08:30.192829  5298 layer_factory.hpp:77] Creating layer label_cifar_1_split
I0916 22:08:30.192859  5298 net.cpp:84] Creating Layer label_cifar_1_split
I0916 22:08:30.192867  5298 net.cpp:406] label_cifar_1_split <- label
I0916 22:08:30.192893  5298 net.cpp:380] label_cifar_1_split -> label_cifar_1_split_0
I0916 22:08:30.192903  5298 net.cpp:380] label_cifar_1_split -> label_cifar_1_split_1
I0916 22:08:30.192966  5298 net.cpp:122] Setting up label_cifar_1_split
I0916 22:08:30.192972  5298 net.cpp:129] Top shape: 100 (100)
I0916 22:08:30.192976  5298 net.cpp:129] Top shape: 100 (100)
I0916 22:08:30.192978  5298 net.cpp:137] Memory required for data: 1230000
I0916 22:08:30.192981  5298 layer_factory.hpp:77] Creating layer conv1
I0916 22:08:30.192994  5298 net.cpp:84] Creating Layer conv1
I0916 22:08:30.192998  5298 net.cpp:406] conv1 <- data
I0916 22:08:30.193018  5298 net.cpp:380] conv1 -> conv1
I0916 22:08:30.193706  5298 net.cpp:122] Setting up conv1
I0916 22:08:30.193716  5298 net.cpp:129] Top shape: 100 32 32 32 (3276800)
I0916 22:08:30.193719  5298 net.cpp:137] Memory required for data: 14337200
I0916 22:08:30.193749  5298 layer_factory.hpp:77] Creating layer pool1
I0916 22:08:30.193778  5298 net.cpp:84] Creating Layer pool1
I0916 22:08:30.193783  5298 net.cpp:406] pool1 <- conv1
I0916 22:08:30.193809  5298 net.cpp:380] pool1 -> pool1
I0916 22:08:30.193994  5298 net.cpp:122] Setting up pool1
I0916 22:08:30.194000  5298 net.cpp:129] Top shape: 100 32 16 16 (819200)
I0916 22:08:30.194002  5298 net.cpp:137] Memory required for data: 17614000
I0916 22:08:30.194006  5298 layer_factory.hpp:77] Creating layer relu1
I0916 22:08:30.194033  5298 net.cpp:84] Creating Layer relu1
I0916 22:08:30.194038  5298 net.cpp:406] relu1 <- pool1
I0916 22:08:30.194043  5298 net.cpp:367] relu1 -> pool1 (in-place)
I0916 22:08:30.194051  5298 net.cpp:122] Setting up relu1
I0916 22:08:30.194056  5298 net.cpp:129] Top shape: 100 32 16 16 (819200)
I0916 22:08:30.194079  5298 net.cpp:137] Memory required for data: 20890800
I0916 22:08:30.194083  5298 layer_factory.hpp:77] Creating layer conv2
I0916 22:08:30.194108  5298 net.cpp:84] Creating Layer conv2
I0916 22:08:30.194113  5298 net.cpp:406] conv2 <- pool1
I0916 22:08:30.194135  5298 net.cpp:380] conv2 -> conv2
I0916 22:08:30.194905  5298 net.cpp:122] Setting up conv2
I0916 22:08:30.194914  5298 net.cpp:129] Top shape: 100 32 16 16 (819200)
I0916 22:08:30.194917  5298 net.cpp:137] Memory required for data: 24167600
I0916 22:08:30.194926  5298 layer_factory.hpp:77] Creating layer relu2
I0916 22:08:30.194954  5298 net.cpp:84] Creating Layer relu2
I0916 22:08:30.194959  5298 net.cpp:406] relu2 <- conv2
I0916 22:08:30.194964  5298 net.cpp:367] relu2 -> conv2 (in-place)
I0916 22:08:30.194972  5298 net.cpp:122] Setting up relu2
I0916 22:08:30.194978  5298 net.cpp:129] Top shape: 100 32 16 16 (819200)
I0916 22:08:30.194984  5298 net.cpp:137] Memory required for data: 27444400
I0916 22:08:30.194988  5298 layer_factory.hpp:77] Creating layer pool2
I0916 22:08:30.195006  5298 net.cpp:84] Creating Layer pool2
I0916 22:08:30.195010  5298 net.cpp:406] pool2 <- conv2
I0916 22:08:30.195019  5298 net.cpp:380] pool2 -> pool2
I0916 22:08:30.195037  5298 net.cpp:122] Setting up pool2
I0916 22:08:30.195044  5298 net.cpp:129] Top shape: 100 32 8 8 (204800)
I0916 22:08:30.195045  5298 net.cpp:137] Memory required for data: 28263600
I0916 22:08:30.195050  5298 layer_factory.hpp:77] Creating layer conv3
I0916 22:08:30.195063  5298 net.cpp:84] Creating Layer conv3
I0916 22:08:30.195067  5298 net.cpp:406] conv3 <- pool2
I0916 22:08:30.195073  5298 net.cpp:380] conv3 -> conv3
I0916 22:08:30.195700  5298 net.cpp:122] Setting up conv3
I0916 22:08:30.195709  5298 net.cpp:129] Top shape: 100 64 8 8 (409600)
I0916 22:08:30.195713  5298 net.cpp:137] Memory required for data: 29902000
I0916 22:08:30.195722  5298 layer_factory.hpp:77] Creating layer relu3
I0916 22:08:30.195730  5298 net.cpp:84] Creating Layer relu3
I0916 22:08:30.195734  5298 net.cpp:406] relu3 <- conv3
I0916 22:08:30.195741  5298 net.cpp:367] relu3 -> conv3 (in-place)
I0916 22:08:30.195747  5298 net.cpp:122] Setting up relu3
I0916 22:08:30.195752  5298 net.cpp:129] Top shape: 100 64 8 8 (409600)
I0916 22:08:30.195758  5298 net.cpp:137] Memory required for data: 31540400
I0916 22:08:30.195761  5298 layer_factory.hpp:77] Creating layer pool3
I0916 22:08:30.195766  5298 net.cpp:84] Creating Layer pool3
I0916 22:08:30.195770  5298 net.cpp:406] pool3 <- conv3
I0916 22:08:30.195794  5298 net.cpp:380] pool3 -> pool3
I0916 22:08:30.195832  5298 net.cpp:122] Setting up pool3
I0916 22:08:30.195837  5298 net.cpp:129] Top shape: 100 64 4 4 (102400)
I0916 22:08:30.195842  5298 net.cpp:137] Memory required for data: 31950000
I0916 22:08:30.195847  5298 layer_factory.hpp:77] Creating layer ip
I0916 22:08:30.195854  5298 net.cpp:84] Creating Layer ip
I0916 22:08:30.195878  5298 net.cpp:406] ip <- pool3
I0916 22:08:30.195883  5298 net.cpp:380] ip -> ip
I0916 22:08:30.197252  5298 net.cpp:122] Setting up ip
I0916 22:08:30.197270  5298 net.cpp:129] Top shape: 100 150 (15000)
I0916 22:08:30.197273  5298 net.cpp:137] Memory required for data: 32010000
I0916 22:08:30.197288  5298 layer_factory.hpp:77] Creating layer df
I0916 22:08:30.197316  5298 net.cpp:84] Creating Layer df
I0916 22:08:30.197321  5298 net.cpp:406] df <- ip
I0916 22:08:30.197325  5298 net.cpp:406] df <- label_cifar_1_split_0
I0916 22:08:30.197331  5298 net.cpp:380] df -> loss
I0916 22:08:30.197341  5298 net.cpp:380] df -> df
I0916 22:08:30.197481  5298 net.cpp:122] Setting up df
I0916 22:08:30.197487  5298 net.cpp:129] Top shape: 1 1 (1)
I0916 22:08:30.197489  5298 net.cpp:132]     with loss weight 1
I0916 22:08:30.197527  5298 net.cpp:129] Top shape: 100 10 (1000)
I0916 22:08:30.197530  5298 net.cpp:137] Memory required for data: 32014004
I0916 22:08:30.197537  5298 layer_factory.hpp:77] Creating layer accuracy
I0916 22:08:30.197546  5298 net.cpp:84] Creating Layer accuracy
I0916 22:08:30.197552  5298 net.cpp:406] accuracy <- df
I0916 22:08:30.197574  5298 net.cpp:406] accuracy <- label_cifar_1_split_1
I0916 22:08:30.197582  5298 net.cpp:380] accuracy -> accuracy
…
