…
I0916 21:49:06.796038  5017 solver.cpp:102] Creating training net from net file: /home/wen/DeepNDF/mnist/df_train_test_pi.prototxt
I0916 21:49:06.796322  5017 net.cpp:294] The NetState phase (0) differed from the phase (1) specified by a rule in layer mnist
I0916 21:49:06.796468  5017 net.cpp:51] Initializing net from parameters: 
name: "LeNet"
state {
  phase: TRAIN
  level: 0
  stage: ""
}
layer {
  name: "mnist"
  type: "Data"
  top: "data"
  top: "label"
  include {
    phase: TRAIN
  }
  transform_param {
    scale: 0.00390625
  }
  data_param {
    source: "/home/wen/DeepNDF/mnist/mnist_train_lmdb"
    batch_size: 100
    backend: LMDB
  }
}
layer {
  name: "conv1"
  type: "Convolution"
  bottom: "data"
  top: "conv1"
  param {
    lr_mult: 0
  }
  param {
    lr_mult: 0
  }
  convolution_param {
    num_output: 20
    kernel_size: 5
    stride: 1
    weight_filler {
      type: "xavier"
    }
    bias_filler {
      type: "constant"
    }
  }
}
layer {
  name: "pool1"
  type: "Pooling"
  bottom: "conv1"
  top: "pool1"
  pooling_param {
    pool: MAX
    kernel_size: 2
    stride: 2
  }
}
layer {
  name: "conv2"
  type: "Convolution"
  bottom: "pool1"
  top: "conv2"
  param {
    lr_mult: 0
  }
  param {
    lr_mult: 0
  }
  convolution_param {
    num_output: 50
    kernel_size: 5
    stride: 1
    weight_filler {
      type: "xavier"
    }
    bias_filler {
      type: "constant"
    }
  }
}
layer {
  name: "pool2"
  type: "Pooling"
  bottom: "conv2"
  top: "pool2"
  pooling_param {
    pool: MAX
    kernel_size: 2
    stride: 2
  }
}
layer {
  name: "ip"
  type: "InnerProduct"
  bottom: "pool2"
  top: "ip"
  param {
    lr_mult: 0
  }
  inner_product_param {
    num_output: 150
    bias_term: false
    weight_filler {
      type: "xavier"
    }
  }
}
layer {
  name: "df"
  type: "DecisionForest"
  bottom: "ip"
  bottom: "label"
  top: "loss"
  top: "df"
  param {
    lr_mult: 1e-20
  }
  propagate_down: false
  propagate_down: false
  decision_forest_param {
    num_output: 10
    tree_num: 10
    depth: 5
    weight_filler {
      type: "constant"
      value: 0.1
    }
    mini_batch_num: 600
    change_weight: true
  }
}
layer {
  name: "accuracy"
  type: "Accuracy"
  bottom: "df"
  bottom: "label"
  top: "accuracy"
}
I0916 21:49:06.796629  5017 layer_factory.hpp:77] Creating layer mnist
I0916 21:49:06.796775  5017 db_lmdb.cpp:35] Opened lmdb /home/wen/DeepNDF/mnist/mnist_train_lmdb
I0916 21:49:06.796828  5017 net.cpp:84] Creating Layer mnist
I0916 21:49:06.796833  5017 net.cpp:380] mnist -> data
I0916 21:49:06.796849  5017 net.cpp:380] mnist -> label
I0916 21:49:06.797370  5017 data_layer.cpp:45] output data size: 100,1,28,28
I0916 21:49:06.798848  5017 net.cpp:122] Setting up mnist
I0916 21:49:06.798861  5017 net.cpp:129] Top shape: 100 1 28 28 (78400)
I0916 21:49:06.798883  5017 net.cpp:129] Top shape: 100 (100)
I0916 21:49:06.798885  5017 net.cpp:137] Memory required for data: 314000
I0916 21:49:06.798904  5017 layer_factory.hpp:77] Creating layer label_mnist_1_split
I0916 21:49:06.798928  5017 net.cpp:84] Creating Layer label_mnist_1_split
I0916 21:49:06.798931  5017 net.cpp:406] label_mnist_1_split <- label
I0916 21:49:06.798940  5017 net.cpp:380] label_mnist_1_split -> label_mnist_1_split_0
I0916 21:49:06.798969  5017 net.cpp:380] label_mnist_1_split -> label_mnist_1_split_1
I0916 21:49:06.799034  5017 net.cpp:122] Setting up label_mnist_1_split
I0916 21:49:06.799041  5017 net.cpp:129] Top shape: 100 (100)
I0916 21:49:06.799054  5017 net.cpp:129] Top shape: 100 (100)
I0916 21:49:06.799057  5017 net.cpp:137] Memory required for data: 314800
I0916 21:49:06.799059  5017 layer_factory.hpp:77] Creating layer conv1
I0916 21:49:06.799072  5017 net.cpp:84] Creating Layer conv1
I0916 21:49:06.799075  5017 net.cpp:406] conv1 <- data
I0916 21:49:06.799082  5017 net.cpp:380] conv1 -> conv1
I0916 21:49:06.799785  5017 net.cpp:122] Setting up conv1
I0916 21:49:06.799809  5017 net.cpp:129] Top shape: 100 20 24 24 (1152000)
I0916 21:49:06.799830  5017 net.cpp:137] Memory required for data: 4922800
I0916 21:49:06.799842  5017 layer_factory.hpp:77] Creating layer pool1
I0916 21:49:06.799849  5017 net.cpp:84] Creating Layer pool1
I0916 21:49:06.799871  5017 net.cpp:406] pool1 <- conv1
I0916 21:49:06.799877  5017 net.cpp:380] pool1 -> pool1
I0916 21:49:06.799940  5017 net.cpp:122] Setting up pool1
I0916 21:49:06.799947  5017 net.cpp:129] Top shape: 100 20 12 12 (288000)
I0916 21:49:06.799952  5017 net.cpp:137] Memory required for data: 6074800
I0916 21:49:06.799953  5017 layer_factory.hpp:77] Creating layer conv2
I0916 21:49:06.799964  5017 net.cpp:84] Creating Layer conv2
I0916 21:49:06.799968  5017 net.cpp:406] conv2 <- pool1
I0916 21:49:06.799974  5017 net.cpp:380] conv2 -> conv2
I0916 21:49:06.800637  5017 net.cpp:122] Setting up conv2
I0916 21:49:06.800663  5017 net.cpp:129] Top shape: 100 50 8 8 (320000)
I0916 21:49:06.800667  5017 net.cpp:137] Memory required for data: 7354800
I0916 21:49:06.800675  5017 layer_factory.hpp:77] Creating layer pool2
I0916 21:49:06.800680  5017 net.cpp:84] Creating Layer pool2
I0916 21:49:06.800684  5017 net.cpp:406] pool2 <- conv2
I0916 21:49:06.800707  5017 net.cpp:380] pool2 -> pool2
I0916 21:49:06.800772  5017 net.cpp:122] Setting up pool2
I0916 21:49:06.800782  5017 net.cpp:129] Top shape: 100 50 4 4 (80000)
I0916 21:49:06.800787  5017 net.cpp:137] Memory required for data: 7674800
I0916 21:49:06.800791  5017 layer_factory.hpp:77] Creating layer ip
I0916 21:49:06.800797  5017 net.cpp:84] Creating Layer ip
I0916 21:49:06.800801  5017 net.cpp:406] ip <- pool2
I0916 21:49:06.800806  5017 net.cpp:380] ip -> ip
I0916 21:49:06.801435  5017 net.cpp:122] Setting up ip
I0916 21:49:06.801442  5017 net.cpp:129] Top shape: 100 150 (15000)
I0916 21:49:06.801445  5017 net.cpp:137] Memory required for data: 7734800
I0916 21:49:06.801450  5017 layer_factory.hpp:77] Creating layer df
I0916 21:49:06.801476  5017 net.cpp:84] Creating Layer df
I0916 21:49:06.801481  5017 net.cpp:406] df <- ip
I0916 21:49:06.801484  5017 net.cpp:406] df <- label_mnist_1_split_0
I0916 21:49:06.801489  5017 net.cpp:380] df -> loss
I0916 21:49:06.801512  5017 net.cpp:380] df -> df
I0916 21:49:06.802027  5017 net.cpp:122] Setting up df
I0916 21:49:06.802037  5017 net.cpp:129] Top shape: 1 1 (1)
I0916 21:49:06.802042  5017 net.cpp:132]     with loss weight 1
I0916 21:49:06.802084  5017 net.cpp:129] Top shape: 100 10 (1000)
I0916 21:49:06.802088  5017 net.cpp:137] Memory required for data: 7738804
I0916 21:49:06.802091  5017 layer_factory.hpp:77] Creating layer accuracy
I0916 21:49:06.802098  5017 net.cpp:84] Creating Layer accuracy
I0916 21:49:06.802103  5017 net.cpp:406] accuracy <- df
I0916 21:49:06.802105  5017 net.cpp:406] accuracy <- label_mnist_1_split_1
I0916 21:49:06.802124  5017 net.cpp:380] accuracy -> accuracy
…
